bit_train_CNN_acc85.pt (torch, 176976 bytes, 7 tensors)

weight f4 [8, 3, 5, 5]
00000000: 6c19 90bc 28df a6bc 96b4 a93d 6006 14bc
00000010: 380f 313d 1c5c 0b3d 8048 4b3c 7028 e13c
00000020: 180c 6e3d bd88 72bd f420 84bd 80f7 843d
00000030: b87d e23d c6ce d13d 5448 8bbd 362f 2bbd
00000040: 7cca d9bd 9814 10bc c2dd 9b3d 889e 643d
00000050: 700d aa3c 9c21 d0bc ec60 43bd 70bd 09bd
00000060: c024 b33c 910a d4bd 085c 55bd 4c41 ec3d
00000070: 7410 96bc e00f c5bd 20b9 84bc dcf1 95bc
00000080: b27d eabd fea3 8e3d fcb3 413d a8c1 a9bd
00000090: 00ba 773b 7cda 093d 3cc8 d0bd 9f44 b7bd
000000a0: 08b6 e93d 901e 343d 58d0 18bc 32a1 aabd
000000b0: 3b89 e7bd d2aa 91bd 5474 9d3d 98b0 80bc
000000c0: 2a19 0fbd 14c8 683d a6eb 90bd 5269 c1bd
000000d0: e08b f3bc 6470 de3d 8228 32bd 82d6 903d
000000e0: bce9 8ebc 0070 76bc 05b2 a4bd f638 debd
000000f0: 521d 96bd 73bb 7abd 4454 db3d 057a a1bd
00000100: da2a e3bd dbba d3bd 8274 44bd 607b e2bd
00000110: af33 70bd d894 ff3c 6835 753d b828 93bd
00000120: 8423 303d a09b d43d 7038 7e3d 401a ea3a
00000130: 1028 703c 6f3d bfbd 3ef8 973d 0d84 99bd
00000140: 5927 b8bd b05d 203d e8d2 173d c0be aabc
00000150: e28c 16bd d07d 523c 30fc f0bb 10db 50bd
00000160: 103d 223d 7ce3 743d 6089 4a3d b6b3 d53d
00000170: ce5a 1bbd ca64 1cbd 10d6 0e3d 8c57 98bc
00000180: 807b 703c 3c59 523d 1c60 6a3d de15 86bd
00000190: 6caf 353d 8471 293d 5e59 b43d 5055 cabb
000001a0: 40fd 6cbc cc92 6f3d 28e7 c03d 223c cc3d
000001b0: 8e78 8c3d 6e58 e93d 6809 bebc 24db 9fbd
000001c0: 80e9 2e3a 4053 f2bc a633 64bd 34a6 0e3d
000001d0: 5690 84bd 2c15 433d 11df c5bd cd42 c9bd
000001e0: 304b 8abd 509c a7bd e9de 7bbd 3dfb 6ebd
000001f0: 38f5 2fbc 8a63 d2bd 1029 973d 0af2 8f3d
00000200: cac8 9abd d0eb 853d 2b33 d4bd bc06 af3d
00000210: 7500 6cbd 40cd fcbb 1865 d9bd 8fda 5bbd
00000220: e7e3 a9bd 805b 8bbb 241c ad3d 289f babc
00000230: e092 b13d 540b 2ebd e05f 113c ae20 01bd
00000240: 3ac9 e1bd 180f f73c 94f1 443d 7296 95bd
00000250: 6f06 7fbd 81b4 90bd 10eb cbbc 666c 07bd
00000260: 0e5c b3bd 4435 92bd 2897 8a3c 5083 96bd
00000270: c495 353d 70c7 283c e094 123c 52c5 adbd
00000280: 30c5 af3c 3054 463c 0882 963c 4af3 82bd
00000290: e0b5 32bb 8896 1b3d e84a 21bd 1586 d2bd
000002a0: d06e 423d c40b 9e3d 423e 37bd 8038 3cbd
000002b0: c0c4 3f3b cad0 a3bd 3005 993c 8c0c 243d
000002c0: 7875 b6bd 8855 073c 500e b3bc 69a5 c3bd
000002d0: 9042 de3b 5ee6 a63d 3afb 99bd 5a90 b73d
000002e0: 4458 cc3d 94dc 183d 6e68 47bd a979 dcbd
000002f0: 4c50 dc3d 42ca 9c3d 8a05 af3d 5460 39bd
00000300: 10ea c8bb dc9e c13d dafc 963d 1523 95bd
00000310: a48c 80bd 9ab2 c63d 503b dbbb b14c 77bd
00000320: 502f 8d3d 6eae 923d be2f 45bd e4d3 c33d
00000330: 34c9 fdbc 7c2a 9c3d 14c7 3cbd ccc7 68bd
00000340: d226 c2bd a0c8 95bb da98 7fbd ea1d 8f3d
00000350: d0ee 273c 78d0 d3bd 48f9 ea3c 8073 d93d
00000360: b89c bd3d 48e2 a13c 5a93 873d f02b 3b3c
00000370: 4022 bd3c 38d5 3a3d a6f0 a03d e40f 063d
00000380: 5a7c e63d cc97 4e3d 2372 95bd f4ff 433d
00000390: 9972 eabd 8424 d7bd fd7d bfbd 8c3c 5b3d
000003a0: f862 e03d c861 2a3d 46a0 1bbd d0b2 9b3d
000003b0: fccf 5d3d e015 6a3d 60e5 39bc 7810 d63c
000003c0: 9886 c93c 8c84 623d b036 de3d 88cc 68bc
000003d0: 6806 953c 30e8 3d3d d837 c53c 352c 9cbd
000003e0: 7c3f 293d 8147 acbd 9cb1 e93d 52e8 9e3d
000003f0: f646 27bd e4d6 eb3d 7ce3 283d a00d 4f3d
-0.017590247 -0.020370081 0.08286397 -0.009034723 0.043227404 0.03402339 0.012407422 0.027485102
0.058117002 -0.059212435 -0.06451598 0.064925194 0.11059135 0.10244517 -0.06800905 -0.04179307
-0.10634324 -0.008793972 0.07610656 0.05581525 0.02075836 -0.025406651 -0.047699854 -0.033627927
0.02186811 -0.10353578 -0.05208972 0.11535892 -0.018318392 -0.096221685 -0.016201556 -0.018303804
-0.11449756 0.06964873 0.047290787 -0.0828889 0.0037800074 0.03365563 -0.10194442 -0.08948635
0.11411673 0.04397446 -0.009327017 -0.08331527 -0.113054715 -0.071126595 0.076882035 -0.015709206
-0.034936108 0.056831434 -0.07076196 -0.094439164 -0.029729784 0.108612806 -0.043495663 0.07072164
-0.017445438 -0.015041351 -0.08041767 -0.10850708 -0.07329811 -0.06121392 0.10709432 -0.078846015
-0.11092158 -0.10338374 -0.047962673 -0.11058688 -0.05864304 0.031198904 0.059865385 -0.07185501
0.04300262 0.103812456 0.06206554 0.0017860606 0.014657989 -0.093378894 0.07420395 -0.0749589
-0.0899188 0.039151847 0.03706637 -0.02084291 -0.03675545 0.012847379 -0.007354282 -0.050990164
0.039609015 0.05978726 0.049447417 0.10434668 -0.037928395 -0.038182057 0.034872115 -0.018596433
0.014677882 0.05135463 0.057220563 -0.065471396 0.04435675 0.041368023 0.08806108 -0.006174721
-0.014464676 0.058489606 0.094190896 0.09972407 0.068589315 0.1139382 -0.023197845 -0.0780547
0.00066723675 -0.029580712 -0.05571332 0.034826472 -0.064728424 0.047627613 -0.09661687 -0.09827194
-0.06752622 -0.08184111 -0.06149188 -0.05834507 -0.010739617 -0.10272892 0.07380879 0.07028587
-0.07557829 0.06539118 -0.10361322 0.08546206 -0.057617623 -0.0077148974 -0.10614985 -0.05367523
-0.08295422 -0.004252851 0.08452633 -0.02278097 0.08670592 -0.042491272 0.008872956 -0.031525306
-0.11024709 0.030158564 0.04808195 -0.07304086 -0.062261995 -0.070656784 -0.02489236 -0.03306236
-0.087577924 -0.07139066 0.01691778 -0.073492646 0.04433228 0.010301456 0.008946627 -0.084849015
0.021456331 0.012105033 0.01837255 -0.0639406 -0.002726905 0.037985355 -0.039378077 -0.1027948
0.04746896 0.07717088 -0.044737108 -0.04595232 0.002926156 -0.07998808 0.018679231 0.040051028
-0.08909124 0.008260138 -0.02185741 -0.09553034 0.006782837 0.08149408 -0.07518621 0.0896308
0.09977773 0.037319735 -0.048683576 -0.10765392 0.10757503 0.07655765 0.08545978 -0.04525788
-0.006131418 0.09454128 0.07372446 -0.07282082 -0.06276825 0.09702034 -0.00669042 -0.060375873
0.0689379 0.07162176 -0.048141234 0.09561899 -0.03097973 0.07625291 -0.046088293 -0.056831166
-0.09480061 -0.0045710355 -0.06240163 0.069881275 0.010249808 -0.10342497 0.02868332 0.10617733
0.09258407 0.01976122 0.06619902 0.01142405 0.02308762 0.045613497 0.078584 0.03273
0.11254187 0.050437734 -0.072971605 0.047851518 -0.11447639 -0.10505012 -0.09350202 0.05352454
0.10956377 0.041597158 -0.037994646 0.07602465 0.054153427 0.057149768 -0.011346191 0.0261309
0.024600312 0.055302188 0.108502746 -0.01420892 0.018191531 0.04636401 0.02407448 -0.07625619
0.04132031 -0.08412076 0.114108294 0.07759155 -0.040839158 0.115155965 0.04123257 0.050550103

bias f4 [8]
00000000: 78e8 f2bc cad5 abbd 648b 013d a0c6 b7bd
00000010: 520b e53d 60e3 edbb 6448 bebd b026 4cbd
-0.029651865 -0.083903864 0.031627074 -0.089734316 0.111838 -0.007259771 -0.09291151 -0.049841583

weight f4 [4, 8, 3, 3]
00000000: 9642 153d 13d6 83bd 0462 cbbc a4f2 bebc
00000010: 2dda 853d d554 d83d e3ca ebbd 60df 76bc
00000020: a27f 683d bed8 02bd 26e8 7c3d 718c dfbd
00000030: 837c 7cbd 4d77 c43d e8ab 55bd a509 acbd
00000040: a83b 66bc 3ce7 7fbd e09d a3bd e53a dbbd
00000050: 579a a13d 2820 f5bc 5254 683d 1668 00bd
00000060: f074 4ebc fc6b 8ebc 62d2 b6bd f77c bb3d
00000070: f0b7 aebb 2f94 c3bd 1d9c e7bd 8cd2 9b3c
00000080: 1423 f93c 775b 8b3d 60b0 16bd 2820 90bc
00000090: e1f6 a63d 6f50 b1bd 4d01 d3bd 2527 c43d
000000a0: a09f 22bc 101e 26bc bc28 df3c 3524 de3d
000000b0: 91a7 a93d d41d c8bc 6e4d d1bd e644 213d
000000c0: 3c4c f73c cdaf cf3d 50c3 d3bd eb11 7dbd
000000d0: cd76 893d 6932 b13d fdb4 8b3d ab6a ab3d
000000e0: 00c2 b53b c063 a2bc c931 ec3d ab3d eabd
000000f0: 10d8 aabc 086e 5c3c 487a 91bd d495 9abd
00000100: b40e a33c 11ec 943d 8f0a a53d aa4c eabd
00000110: d015 34bd 7d57 8d3d 6335 b23d cead 6fbd
00000120: 19bd bc3d d5a6 8bbd 29cc df3d 65f1 f0bd
00000130: 67d0 ee3d 4484 adbc e293 69bd 7b7c bcbd
00000140: ade9 ab3d a898 7e3c 817f d6bd ff30 d43d
00000150: 2817 fdbc 9b69 943d 9a59 90bd 2091 cc3b
00000160: 944d 37bd ab8e 7fbd a83f 96bd dcd7 84bd
00000170: 3a40 11bd 4572 ac3d 0c23 b53c 90e1 9cbb
00000180: 9cc7 e53c 806a c13a c5bd 7abd a0e2 22bc
00000190: 78da 463c 1fd5 be3d 5d05 cabd 1dbe c83d
000001a0: 6ed2 463d e471 8a3c 6f1b cd3d bcdb cd3c
000001b0: 4acc 77bd 27e8 c53d 27af d03d 3e74 78bd
000001c0: 3491 8dbc f722 bbbd 0b22 a53d 7c86 a23c
000001d0: da25 39bd a998 813d a0fa 2a3b db67 9f3d
000001e0: b6d5 123d 28ff 8cbc b7e4 cbbd 0eef 463d
000001f0: 3e72 303d 9fda e9bd 9a9f 0f3d 4598 dd3d
00000200: bcc1 953c 3a1b 423d 8121 ebbd a251 6e3d
00000210: d194 e83d 7863 96bd 36aa 93bd fd6b bfbd
00000220: 7070 44bc 2642 37bd 600d 3bbc aa51 62bd
00000230: 511b cfbd a2e1 a0bd 32ce 42bd 18fa 8abd
00000240: 4a0f 1e3d 08a8 0bbc ed6b a43d 8cc2 be3c
00000250: 99a5 eebd 0c57 8c3c c2d7 4e3d 466f 62bd
00000260: c7fd 843d 3451 8f3c ac9f 49bd e305 e3bd
00000270: fcc6 e43c 3813 03bc 864e 373d 4a91 443d
00000280: de4d 753d 688f d5bc bb83 e7bd e6c4 3c3d
00000290: 10db 88bd 5c50 a93c 3bad a73d e44c a0bd
000002a0: bc3b 4fbd a038 47bd ecbb 9cbd 5a85 0f3d
000002b0: e51c ee3d 56fd 493d bff8 d43d d3fe 8bbd
000002c0: 64a6 e03c dfbc 8a3d 4f06 903d 9e99 5ebd
000002d0: 8ca8 95bd 1fb7 e73d 7678 523d 2dec e13d
000002e0: 088e 663c c1ad d33d 9b36 ec3d 0a2c 0f3d
000002f0: a677 143d 0d84 a93d 20a4 07bc b53a bd3d
00000300: 3bc4 a0bd 003a 12bd 1ac9 043d 380a 94bc
00000310: 4f21 c43d e064 78bc 2241 0cbd e47c fb3c
00000320: 2ae3 80bd f65a 093d ab78 ae3d 6865 bdbd
00000330: 17d4 f03d 80f1 c6bb 80a7 30ba de03 95bd
00000340: 8629 41bd 5e7e 7f3d 39a4 c33d 3191 a63d
00000350: 0091 be39 c0c0 21bc 9c19 5cbd e16b be3d
00000360: ec67 84bd 138e ae3d b49d e43c 6ef9 cdbd
00000370: d1a6 983d c02f c5bd bc03 48bd 804e 443a
00000380: 179e 8c3d be2b 713d 5f5c a9bd c552 ac3d
00000390: 3317 c03d 16d1 ddbd dc8d 4ebd ebb1 dc3d
000003a0: 5d5a f03d b8a0 1c3c d2a0 27bd 022b 543d
000003b0: 2565 c2bd 9264 163d 500f bcbc ffd7 933d
000003c0: 05b1 ed3d 92ed 4c3d 6410 d3bc c5fc 99bd
000003d0: 5449 90bd bcae ecbd 2ed2 783d 9a46 9ebd
000003e0: 6894 7bbc fc83 883c b14d cf3d 6213 5b3d
000003f0: aa62 593d 6664 173d 60d8 31bc 2e74 a5bd
0.036440454 -0.06437316 -0.02482701 -0.02330906 0.06535754 0.105630554 -0.11513307 -0.015067905
0.056762345 -0.031944983 0.06174483 -0.10915459 -0.06164218 0.09593067 -0.052165896 -0.08400277
-0.014052309 -0.06247638 -0.07989097 -0.107045926 0.07890766 -0.02992256 0.05672104 -0.031349264
-0.012601122 -0.017385475 -0.08926846 0.091546945 -0.0053319857 -0.09549748 -0.11309073 0.019021295
0.030412234 0.06804555 -0.036789298 -0.017593458 0.08152557 -0.086579196 -0.103029825 0.09577779
-0.009925753 -0.010139003 0.027241103 0.1084675 0.08283914 -0.024428286 -0.10219847 0.039372347
0.030187719 0.10140953 -0.10339987 -0.061784666 0.067121126 0.08652193 0.0682163 0.08369955
0.0055468082 -0.019822955 0.11532933 -0.114375435 -0.02085498 0.013453968 -0.071034014 -0.07548109
0.019904472 0.072715886 0.080586545 -0.11440404 -0.043966115 0.06901453 0.08701589 -0.058515362
0.09215755 -0.0681893 0.10927612 -0.11764792 0.11660843 -0.021181233 -0.057025798 -0.0920343
0.083941795 0.015539326 -0.10473538 0.10360908 -0.03089483 0.07246705 -0.0704834 0.006242886
-0.04475172 -0.06239192 -0.0733636 -0.064864844 -0.03546164 0.08420233 0.022111438 -0.0047876313
0.028049283 0.0014756471 -0.061216135 -0.009941727 0.012137048 0.093179934 -0.09864304 0.09801886
0.048540525 0.01690001 0.10014998 0.025129192 -0.06049756 0.0966342 0.10189658 -0.060657732
-0.017281152 -0.091375284 0.08063134 0.019839518 -0.045202114 0.06327946 0.0026089326 0.07783481
0.035848342 -0.017211512 -0.09955733 0.048567824 0.0430777 -0.11418652 0.035064317 0.10820059
0.018280856 0.047389247 -0.11481 0.05818332 0.113565095 -0.07343191 -0.072101995 -0.09346769
-0.011989698 -0.04474082 -0.011416763 -0.055253662 -0.10112632 -0.07855536 -0.047559924 -0.06785983
0.0385888 -0.0085239485 0.08028398 0.023286127 -0.11652679 0.017131351 0.05049873 -0.0552819
0.06493717 0.017494775 -0.04922454 -0.11085107 0.027926914 -0.008000188 0.04475262 0.04799012
0.059888713 -0.026069358 -0.113044225 0.046086214 -0.06682408 0.020668201 0.08187338 -0.07827166
-0.050594077 -0.048637986 -0.07653031 0.035039283 0.11626605 0.049313866 0.10399007 -0.06835713
0.027423091 0.067743056 0.07032453 -0.05434572 -0.073075384 0.113142245 0.05138441 0.11031375
0.014071949 0.10335875 0.11533853 0.03495411 0.03624692 0.0827714 -0.008278877 0.09239713
-0.07849928 -0.035699844 0.032418348 -0.018071279 0.095766656 -0.015160769 -0.034241803 0.0306992
-0.06293328 0.033534013 0.08519109 -0.09247857 0.11759203 -0.0060712695 -0.00067388266 -0.07276128
-0.04715874 0.062376373 0.09552807 0.08133162 0.00036347657 -0.009872615 -0.05373536 0.0929792
-0.06465134 0.08523192 0.02790723 -0.100573406 0.07453693 -0.09628248 -0.048831686 0.0007488504
0.06866091 0.058879606 -0.082695715 0.084142245 0.09379425 -0.108308956 -0.050428256 0.10776123
0.117359854 0.009559803 -0.040924855 0.051798828 -0.09491948 0.036717005 -0.02295652 0.07218932
0.116060294 0.050031252 -0.025764652 -0.07518915 -0.07045236 -0.115567654 0.060747318 -0.0772831
-0.015355207 0.016664498 0.1012224 0.05348528 0.05307261 0.03696098 -0.0108548105 -0.080788

bias f4 [4]
00000000: f23e c6bd e72f e3bd eb43 893d 2818 a9bc
-0.096799746 -0.11093121 0.067024074 -0.020641401

weight f4 [128, 324]
00000000: de16 03bd 7059 55bc 82d5 d53c 3e82 8b3c
00000010: 8a8b 863c c0c8 3d3b c477 a5bc 4214 26bd
00000020: 2934 14bd 5bd5 57bd 2037 56bb e22f 9a3c
00000030: 60bb abbc 1277 34bd ae08 b23c e15d 373d
00000040: 7001 4cbb d479 5fbd a131 5d3d 76bf 90bc
00000050: 1731 01bd 0ac4 92bc ae95 8a3c c767 5a3d
00000060: 25e2 3f3d 9766 183d b7da 22bd 54f7 2c3c
00000070: e27a a83c e88c 87bc d998 2b3d 30d4 3ebc
00000080: 83ea 4e3d f5a8 d2bc d26a b63c 168a 953c
00000090: 4021 15bd 7650 aa3c 202b e7bc 39b5 31bd
000000a0: 2bac fdbc 3658 bb3c d342 193d fb70 3b3d
000000b0: b74f 513d aed1 b9bc 089b 74bc 84f7 5e3c
000000c0: dcf4 84bc aaa8 05bd d7d3 373d 3624 89bc
000000d0: 4bb0 233d dcb8 67bc 2724 533d 249f cdbc
000000e0: 8047 94ba b63b ab3c 1820 92bc e392 5f3d
000000f0: 7a4a ef3c c0af 913a 9ec8 15bd 529c fe3c
00000100: 9e71 f63c 9556 523d a810 babc cd39 603d
00000110: 863c 883c 7782 23bd 0961 30bd 1470 26bc
00000120: 218c 5c3d 8644 22bd fc3b 06bd a22b 08bd
00000130: 929b c9bc 88de 56bc e0d1 a8bb ecbe 26bc
00000140: 806f 52bc 9967 3a3d 9255 0bbd 7cb5 043c
00000150: 94c9 233c e03f e03b ab70 0d3d 18af 8ebc
00000160: e0c1 bf3b 7cbd 0bbd ff20 2d3d b41c 653c
00000170: 4ab6 c1bc 043f 573c 6a5d b1bc ec5a 60bc
00000180: 7b6a 343d 3225 0abd e054 74bb eb57 0f3d
00000190: f048 a53b f07b c23b 6ee4 c63c e720 5b3d
000001a0: 0091 29bd de90 8b3c 691d 2c3d ac42 37bd
000001b0: 442c 3a3c 3236 3ebd d489 03bc 46c9 3abd
000001c0: d2d6 13bd 8215 8b3c 67f5 2e3d f66a c93c
000001d0: e008 d8bb 27b9 cebc 70c8 b13b c975 00bd
000001e0: d87c bb3b 9272 c6bc 947d 1dbd 38f8 74bc
000001f0: 045a c2bc 0c62 2e3c 2bd1 5c3d 10bd dd3b
00000200: 8437 8abc 9d53 243d 3ac2 d63c 8e4c d0bc
00000210: 6d62 083d 8073 9e39 4565 60bd 9c4a 2c3c
00000220: 19d2 d0bc 1031 b53b a794 153d 645a 793c
00000230: e163 2e3d f21c fd3c f529 e2bc abd3 353d
00000240: b1dc 4b3d 5402 4abd 67af fdbc 61bc 3e3d
00000250: 0f70 073d 9025 3e3b 4c33 01bd 80f5 c639
00000260: d8a7 d4bb 7b93 5c3d f4b2 5e3c f706 34bd
00000270: 12b6 9fbc a702 fdbc 9ca9 033c 468c a83c
00000280: e2e9 963c 30e9 0cbc 681e c1bc 0210 09bd
00000290: 1214 d8bc 90a6 623b 82c8 f53c 06d9 d93c
000002a0: 3620 0abd 6c16 7dbc 80ed 40bc 60e1 b1ba
000002b0: 28cc fabb 903b 753b e5d1 1b3d 200c 523b
000002c0: e234 fb3c 80ec e2b9 4c69 153c c291 18bd
000002d0: 60bd 9e3a 202f 8f3a d6f8 23bd f1c0 2b3d
000002e0: de30 883c d8e9 92bc 7bfa 4b3d 8e09 b13c
000002f0: 20a8 e03b 1d4e f7bc 44ab a2bc 2215 ae3c
00000300: 7da9 cfbc c9d8 07bd e0bf ecbb a7c6 613d
00000310: a81e d1bb 5182 2f3d eccb 19bc e052 b73a
00000320: c09f ec3a 6ced 13bc a944 213d a4af 57bd
00000330: dcf1 24bc 380c a1bc c616 9e3c e063 093b
00000340: 1da0 fdbc e842 abbc 12ce 28bd 89ee 30bd
00000350: 0412 483c 04b7 783c 71df 483d ec3c 05bc
00000360: 991e 593d ddb5 cdbc a199 623d b21b 14bd
00000370: 88b8 31bc 218e 0d3d e02a b23a c277 d43c
00000380: b2e4 9bbc 0490 0dbd f7db 313d 5923 03bd
00000390: 76ff b73c 7cd1 9bbc 34cd 5e3c 0ef9 b83c
000003a0: 603b 843b 3cb1 663c 6dfe 2d3d fe45 b03c
000003b0: 88e2 8fbc c029 4bbc 804b 1a3a d80f f8bb
000003c0: 79e2 163d 14c8 68bc 5001 4dbc c327 5f3d
000003d0: e5c2 153d 51d1 133d a0f8 15bd ecf5 30bd
000003e0: e12f 523d 4798 403d 0075 e1bc 10df 55bd
000003f0: 92b1 4ebd a811 8b3b 9bf1 123d 8832 8ebc
-0.03200423 -0.013021812 0.026102785 0.017029878 0.01642396 0.0028958768 -0.02019871 -0.040546663
-0.036182556 -0.052693706 -0.0032686666 0.01882166 -0.02096337 -0.044058867 0.021732654 0.044767264
-0.0031128787 -0.054559544 0.054002408 -0.01766942 -0.031540956 -0.017915744 0.016917076 0.053321626
0.046846528 0.037207212 -0.039759364 0.0105570145 0.020566408 -0.016546682 0.041893814 -0.011647269
0.050516617 -0.02571533 0.022267733 0.018254321 -0.036408663 0.02079032 -0.028218806 -0.043385718
-0.030965885 0.02286921 0.037417244 0.045762043 0.051101413 -0.02268299 -0.01492954 0.013608817
-0.01623004 -0.032631554 0.04487976 -0.0167409 0.039963048 -0.014143195 0.05154815 -0.025100298
-0.0011312813 0.020902496 -0.01783757 0.05458344 0.029210318 0.0011115 -0.036568277 0.031080399
0.030083474 0.051352102 -0.02271302 0.054742623 0.016630422 -0.039919343 -0.04306129 -0.010158557
0.053844575 -0.03961613 -0.03277205 -0.033244736 -0.024610315 -0.013114579 -0.005151972 -0.010177355
-0.0128439665 0.045508955 -0.034017153 0.00809991 0.00999679 0.006843552 0.034531277 -0.017417476
0.005851969 -0.034116253 0.042267796 0.013983894 -0.023646493 0.013137583 -0.021650989 -0.013693552
0.04404686 -0.03372688 -0.0037282035 0.034995954 0.005044095 0.0059351847 0.024278846 0.053498175
-0.04139805 0.017036851 0.042020235 -0.044741318 0.011363093 -0.046438403 -0.008028466 -0.045602106
-0.03609354 0.01697803 0.042714503 0.024587136 -0.006592855 -0.025234772 0.0054255053 -0.03136233
0.0057216696 -0.024224553 -0.03844984 -0.014951758 -0.023724563 0.010643493 0.053910416 0.006766923
-0.016872175 0.040118802 0.026215661 -0.02542713 0.03329699 0.00030222163 -0.05478408 0.010515835
-0.025490807 0.0055295303 0.03651872 0.015219305 0.04257572 0.030897591 -0.027607897 0.044391315
0.049771015 -0.049318627 -0.030967427 0.04656637 0.03306585 0.0029014088 -0.03154306 0.00037948415
-0.006489735 0.053851586 0.01359247 -0.043951955 -0.019495998 -0.030885054 0.0080360435 0.0205747
0.01842207 -0.008600518 -0.02357407 -0.033462532 -0.026376758 0.0034584142 0.030002836 0.026592743
-0.033722125 -0.01544724 -0.011775374 -0.0013571195 -0.007653732 0.0037419535 0.038041968 0.0032050684
0.030664865 -0.00043282285 0.009119343 -0.03724838 0.0012110882 0.0010924079 -0.04003223 0.04193205
0.016624864 -0.017933771 0.049799424 0.021611001 0.0068559796 -0.030188615 -0.019857056 0.021250311
-0.025349373 -0.033165727 -0.0072250217 0.05512109 -0.0063818283 0.04284889 -0.009386998 0.0013986491
0.001805298 -0.009028774 0.03937212 -0.05265774 -0.010067429 -0.019659147 0.019297969 0.002096407
-0.030960137 -0.020905927 -0.04121215 -0.043196235 0.0122113265 0.015180353 0.049041215 -0.008132201
0.053007696 -0.025111133 0.055322293 -0.036159225 -0.010847218 0.034559373 0.00135931 0.025936011
-0.019029949 -0.034561172 0.043422665 -0.032016132 0.02246068 -0.019020788 0.013598729 0.022579696
0.0040353984 0.014080342 0.042478967 0.02151775 -0.017564073 -0.012400091 0.0005885884 -0.007570248
0.036837075 -0.014207859 -0.01251252 0.05448128 0.03656282 0.03608829 -0.03661406 -0.04320328
0.051315192 0.047020223 -0.02752161 -0.052214682 -0.050462313 0.004244048 0.035874944 -0.01735808

bias f4 [128]
00000000: 2e5e b63c 8287 fb3c 8a99 dd3c a44d 5f3c
00000010: 3000 60bd 7809 3fbc 1dbf 573d 420d 9a3c
00000020: 80e4 e7bc 82d2 16bd ac53 7ebc ce37 c23c
00000030: a990 063d 3f37 183d 6c62 313c c606 ce3c
00000040: ecf6 35bd 99c8 2fbd dd5f e0bc a0aa 22bd
00000050: 5231 963c e85f c5bc 8aef c5bc 9755 3cbd
00000060: a9b9 4bbd 3e17 3dbd e244 9c3c 99c1 0abd
00000070: e06a 9abb ec5a 55bc 0ab8 01bd a1c1 4a3d
00000080: 20f5 d43a 9e8b 843c 84d0 8abc 8893 04bc
00000090: 783d b3bc 0a9b c4bc 0e7c dabc 0003 70bb
000000a0: 4b4f e1bc 646c 59bc 40d6 cd3a a6b3 ab3c
000000b0: 42ed 993c e688 863c 90ed 29bc 7e7d 29bd
000000c0: 87e2 fabc 887b 13bc 36da b83c eb2b f4bc
000000d0: 3408 443c 287f c4bc c0d0 d0bc e179 1a3d
000000e0: 8d46 123d 20f9 52bb ce9a 00bd 53ea 503d
000000f0: 14e9 2f3c 9340 5e3d 2666 a53c 2480 16bc
00000100: 8d8e 573d 5aeb 9f3c 05b5 033d 54d5 50bc
00000110: b624 a5bc 4e7d 8bbc 326a c2bc 3baf 593d
00000120: 16b0 a53c 4076 b0bc d21c 953c ab24 4f3d
00000130: 8888 62bc e74a 123d 9cd2 27bd 5717 11bd
00000140: e5c2 3d3d 6072 b33b a8c1 81bb 2a32 e43c
00000150: 7003 59bb 55f3 033d 90ee 3e3b 1a29 913c
00000160: f58e 46bd aa9e 1ebd aeef b9bc dbbd 4dbd
00000170: b65f c43c c0b0 02bc a47f 09bc 4a28 933c
00000180: 78d4 65bc 858f 033d 368d 9fbc 003e d2ba
00000190: 992e 23bd c072 37bb 800b d5b9 6666 f03c
000001a0: f0bf 3abc e033 4f3b 0e94 dd3c 1554 5abd
000001b0: 7307 323d 4eca b2bc 4b32 403d a0e8 993a
000001c0: c23a d03c eb27 3d3d cb11 0a3d 31b7 603d
000001d0: 1d52 503d f64e 813c 545a 513c aa11 e83c
000001e0: 7c23 b5bc e876 b5bc 92b9 bebc 3654 a5bc
000001f0: 28de 953b 31ba 1c3d de26 a73c a03e e3bb
0.022261705 0.030704264 0.027050752 0.013629351 -0.05468768 -0.011659972 0.052672494 0.01880515
-0.0283072 -0.03682185 -0.015522879 0.02370825 0.032852802 0.03716206 0.010826688 0.025149714
-0.044424936 -0.042915914 -0.027389461 -0.039713502 0.018334065 -0.024093583 -0.024162073 -0.045980062
-0.049737606 -0.046164744 0.019075815 -0.033876035 -0.0047124475 -0.013022166 -0.031669654 0.049501065
0.0016247369 0.016179856 -0.016945131 -0.008091815 -0.021879897 -0.02399971 -0.026670482 -0.0036622882
-0.02750363 -0.013270471 0.001570411 0.020959686 0.018789891 0.0164227 -0.010371581 -0.041379444
-0.030625595 -0.00900162 0.022564989 -0.029806098 0.011964846 -0.023986414 -0.025490165 0.03771389
0.035711814 -0.0032191947 -0.031397633 0.05100472 0.0107367225 0.0542608 0.02019031 -0.009185825
0.05262618 0.019521404 0.032155056 -0.012746174 -0.020159107 -0.017027523 -0.023732278 0.05314563
0.020225566 -0.021540761 0.01820222 0.05057208 -0.013826497 0.035715964 -0.040972337 -0.03542265
0.046328444 0.005476281 -0.003959853 0.027855951 -0.0033113621 0.03221448 0.0029133894 0.017719794
-0.04847618 -0.038725533 -0.022697296 -0.05022989 0.02397142 -0.007976711 -0.008392248 0.017963547
-0.014027707 0.032119293 -0.019476514 -0.0016040206 -0.03983936 -0.002799198 -0.00040635094 0.029345702
-0.0113983005 0.0031616613 0.027048137 -0.053302843 0.043464135 -0.021824982 0.046922963 0.0011742301
0.025418643 0.046180647 0.033708375 0.054862205 0.05085956 0.015784722 0.012777884 0.028328735
-0.022111647 -0.022151425 -0.023281846 -0.020181756 0.004573602 0.038263503 0.020404276 -0.0069349557

weight f4 [1, 128]
00000000: e0c2 d1bc 5a79 653d 355a 923d 2e0c 203d
00000010: 4854 92bc ba99 46bd fa9e 7e3d df93 a8bd
00000020: c3f7 903d 160b 8bbd 90d0 bdbb 7220 373d
00000030: f891 28bc fc8e ad3c 921c 4e3d d889 943c
00000040: 44f8 80bd d053 c4bb 4433 8dbd e861 123c
00000050: 8c90 84bc 8080 17bc cd78 a73d 74f3 053d
00000060: 2826 6d3c e5c2 9dbd 6635 15bd e063 a4bb
00000070: fe30 663d 451b a03d b064 91bd def4 aebd
00000080: 3132 a43d 4b7b 43bd fdc2 41bd e03a 07bc
00000090: b41e d53c 22fb f8bc d598 9ebd a099 0e3c
000000a0: 4c67 c4bc 6e9b 413d 33e3 14bd b869 ca3c
000000b0: c8e6 7fbc 3eb2 413d 1274 a2bd 22c1 5abd
000000c0: d880 0fbc dcd0 afbd 86c3 7d3d 30d0 813c
000000d0: e85d 83bd 68f4 f63c 2f99 14bd 4cbf e43c
000000e0: 1a6a 2c3d 36f9 20bd da1a 43bd e0f2 09bb
000000f0: b57c a23d de7a 2bbd 10d1 b5bc 0c36 db3c
00000100: c869 4e3c 6c0b 2dbd 47f5 983d 10bc 8d3b
00000110: 5c0c f2bc 98fd 31bc 5620 403d 48ba adbd
00000120: 5a86 1d3d a07f 513b 76fa 94bd 404c 09bc
00000130: 75ee af3d b01a 0ebd 42c2 9ebd 338c 5cbd
00000140: e594 a53d ece4 8bbc 9921 8a3d d86b 1b3c
00000150: b0f4 90bb 3085 c33c 7ac7 a5bd 60b6 c73b
00000160: 0b01 a0bd 6851 37bc ea33 313d 88f2 b7bc
00000170: fdf9 8f3d 5047 ecbb a62a 26bd e30a 993d
00000180: cdf6 31bd 0082 59bc ae03 6f3d e850 853c
00000190: c8fe 9bbc 0863 70bc 70dd efbc a440 efbc
000001a0: 4322 8cbd 62e8 4cbd f1c8 823d de81 3a3d
000001b0: f3af 973d 1862 6e3c 5e16 6bbd e0d7 b03b
000001c0: 7da9 b3bd bc1d c0bc 757c 73bd e701 a93d
000001d0: c6ba 003d 41c0 8e3d 0c87 6cbd ea66 73bd
000001e0: 9982 41bd e5d8 b03d 86c2 8abd 59de 23bd
000001f0: 60f4 dc3b 5255 8dbd 1cb0 c3bc 8e48 233d
-0.025605619 0.056023933 0.07146112 0.039074115 -0.017862454 -0.04848645 0.06216333 -0.08231329
0.07078507 -0.06789224 -0.005792685 0.044708677 -0.010288708 0.021186344 0.050320216 0.018132135
-0.06297353 -0.0059914365 -0.06894544 0.0089344755 -0.016182207 -0.009246945 0.08177338 0.032702878
0.014474429 -0.07703189 -0.036427878 -0.005016789 0.056199066 0.07817701 -0.07099283 -0.085427985
0.08017386 -0.047725003 -0.047305096 -0.008253783 0.026015617 -0.030393187 -0.07743994 0.008703619
-0.023975037 0.04726737 -0.036349487 0.024708614 -0.015618987 0.047289126 -0.07932295 -0.053406842
-0.008758746 -0.08584759 0.061954044 0.015846342 -0.064143956 0.030145839 -0.0362789 0.027923249
0.042093374 -0.039300166 -0.04763303 -0.0021049306 0.07933942 -0.041865222 -0.022194415 0.02675917
0.012598462 -0.04224722 0.07468658 0.0043253973 -0.029546909 -0.010863684 0.046905838 -0.08482796
0.038458206 0.003196694 -0.07274334 -0.008379996 0.08590404 -0.03469342 -0.077518955 -0.053844642
0.0808504 -0.017076932 0.067446895 0.009486161 -0.0044237003 0.02386722 -0.08094688 0.006094739
-0.07812699 -0.011188842 0.0432624 -0.022454515 0.07030103 -0.0072106495 -0.040568016 0.074727796
-0.04344826 -0.013275623 0.05835312 0.01627393 -0.019042388 -0.014672048 -0.029280394 -0.029205628
-0.068424724 -0.050026305 0.06385983 0.045534007 0.074066065 0.014549755 -0.057394378 0.005396828
-0.08772562 -0.023451678 -0.059444863 0.08252316 0.03142812 0.06970263 -0.05774598 -0.05942432
-0.04724369 0.08635119 -0.06775384 -0.04000697 0.006742999 -0.06901039 -0.023887686 0.039864115
