bitmoji_cnn_augmented.pt (torch, 177000 bytes, 7 tensors)

weight f4 [8, 3, 5, 5]
0	0x3c979a98	0.018506333
1	0x3dc659ee	0.096851215
2	0xbdcf2808	-0.10115057
3	0xbdcaa532	-0.0989479
4	0xbdd36a2f	-0.10322987
5	0xbd68a2d9	-0.05679593
6	0x3da46296	0.08026616
7	0xbd28364a	-0.0410674
8	0xbdb5cd40	-0.08877039
9	0x3c9d9e00	0.01924038
10	0x3da87b06	0.0822659
11	0xbd5f6a1b	-0.05454455
12	0xb9f06100	-0.00045848638
13	0x3c926918	0.017872378
14	0xbbf514a0	-0.0074792653
15	0x3d9a9b2c	0.07549128
16	0x3cd23848	0.025661603
17	0x3c026d40	0.007960618
18	0x3d689e60	0.056791663
19	0xbd73249f	-0.059361096
20	0x3da71688	0.08158594
21	0x3de8d9a8	0.1136964
22	0x3db1d0f0	0.0868243
23	0xbd7fdb00	-0.062464714
24	0xbd21b5a2	-0.03947986
25	0x3c6e9210	0.014561191
26	0x3c64eaa0	0.013971955
27	0xbd885c38	-0.06658214
28	0x3dc8a5bc	0.09797236
29	0xbd9942ba	-0.0748343
30	0x3b4fc1c0	0.0031701177
31	0x3d95d2ca	0.073155954
32	0xbdec2ca5	-0.11531953
33	0x3ddb0864	0.1069496
34	0x3dd13010	0.10214245
35	0xbda00a50	-0.07814467
36	0xbcae1d94	-0.021254338
37	0x3d0603d4	0.032718495
38	0xbd3a5352	-0.045489617
39	0xbd97c5bd	-0.074107625
40	0x3d3e3b88	0.046443492
41	0x3d8d27fc	0.06892392
42	0x3d389fbc	0.04507421
43	0xbd4f2b22	-0.050578244
44	0xbda99dfa	-0.08282085
45	0xbdc2c0be	-0.09509419
46	0xbda45b9b	-0.08025285
47	0xbd9b14ea	-0.075723484
48	0x3d8290e2	0.063752905
49	0x3c9e6498	0.019335076
50	0x3de15dba	0.11004205
51	0x3d5de26c	0.05417101
52	0x3d4666b4	0.04843779
53	0xbd857724	-0.06516865
54	0xbd1dd700	-0.038535118
55	0xbda25da0	-0.07928014
56	0x3da98d4a	0.08278902
57	0x3de854fa	0.11344333
58	0xbdb878e2	-0.090074316
59	0xbd4d6ca0	-0.05015242
60	0xbde97e0e	-0.11400996
61	0x3cab36a8	0.020900086
62	0x3d4739ac	0.048638985
63	0xbd2b15b8	-0.04176876
64	0x3d9d63ea	0.07685073
65	0x3c6ae1e0	0.014336079
66	0xbd76a5f4	-0.06021686
67	0xbd6b43f0	-0.057437837
68	0x3cb16a38	0.021657094
69	0x3ddc302a	0.10751374
70	0xbde5a61d	-0.11213324
71	0x3d3d9080	0.046280384
72	0x3d95867e	0.07301043
73	0x3ddf5582	0.10904981
74	0x3bf722a0	0.0075419694
75	0xbddf21f9	-0.10895152
76	0x3dcfd562	0.101481214
77	0xbc87bbbc	-0.01656901
78	0xbdc7731e	-0.09738754
79	0xbda9387f	-0.08262729
80	0xbdd7e7fa	-0.10542293
81	0x3da86faa	0.08224423
82	0x3ac87340	0.0015293136
83	0x3d9da086	0.07696633
84	0xbd9d137e	-0.076697335
85	0x3dd93494	0.106057316
86	0xbdb5cdea	-0.088771656
87	0xbd72a726	-0.059241436
88	0xbc6b8eb0	-0.014377281
89	0x3dc51164	0.096224576
90	0x3cb8a100	0.022537708
91	0xb7dc7000	-2.6278198e-05
92	0x3c48f760	0.01226601
93	0x3c5f3870	0.013624296
94	0x3c01c338	0.007920079
95	0xbc812254	-0.01576344
96	0xbda91d6e	-0.082575664
97	0xbd56006c	-0.052246496
98	0xbd9aed2a	-0.07564767
99	0x3c2df5d0	0.010617688
100	0x3c79d160	0.015247673
101	0x3d9ad118	0.07559413
102	0x3d35f190	0.044419825
103	0x3d881e98	0.0664646
104	0x3d4060f8	0.046967477
105	0x3dba7ce6	0.09105854
106	0xbdb9cc88	-0.09072214
107	0xba201580	-0.00061067194
108	0x3da0c334	0.07849732
109	0x3d5dd150	0.054154694
110	0x3d0acd44	0.033887163
111	0x3c7c1620	0.015386134
112	0x3d64f6c0	0.05589938
113	0xbc9bcdd8	-0.019019052
114	0xbd3cbb14	-0.04607685
115	0xbd236ed8	-0.03990063
116	0xbdb638bb	-0.08897539
117	0x3d80f6a8	0.06297046
118	0x3c9c1058	0.019050762
119	0xbde2df37	-0.11077731
120	0x3bd61510	0.0065332726
121	0x3dd00020	0.10156274
122	0xbcf8a9dc	-0.030354433
123	0x3d971522	0.07377078
124	0x3de16d1e	0.110071406
125	0x3db7a8e0	0.08967757
126	0x3c164808	0.009172447
127	0xbd5ee0db	-0.054413658
128	0xbde10ca6	-0.109887406
129	0xbbc42da0	-0.0059868842
130	0x3dd88174	0.10571566
131	0xbd81910a	-0.06326492
132	0x3de6355a	0.11240645
133	0xbad1ac00	-0.0015996695
134	0xbd453ab6	-0.048151694
135	0xbdd2a019	-0.102844425
136	0x3ddf1762	0.10893132
137	0xbd979e84	-0.07403281
138	0x3cccc720	0.024997294
139	0x3db8d8a6	0.090256974
140	0x3c1ebd10	0.009688631
141	0xbdc64d2b	-0.09682687
142	0x3dd12a24	0.10213116
143	0xbd39d038	-0.04536459
144	0x3cee59d8	0.029095575
145	0x3c91e3c8	0.01780881
146	0x3d05c878	0.032661885
147	0x3c9d4cc8	0.019201651
148	0xbd0d93ea	-0.03456489
149	0xbcd3e8ec	-0.025867902
150	0xbda84898	-0.08216971
151	0xbd1a825e	-0.037721984
152	0xbd016f6e	-0.03160041
153	0xbd1c5e16	-0.038175665
154	0xbb1557a0	-0.0022787824
155	0xbd66432c	-0.056216404
156	0x3d895134	0.067049414
157	0xbd376430	-0.04477328
158	0x3d46c8f8	0.048531502
159	0x3c910338	0.01770173
160	0xbd3983b2	-0.04529161
161	0x3d261310	0.040545523
162	0xbca00d5c	-0.01953762
163	0x3a18ca00	0.000582844
164	0xbdb02db2	-0.08602466
165	0x3db4b7ce	0.088241205
166	0x3db9a5e4	0.09064844
167	0x3d017990	0.03161007
168	0x3c69f060	0.014278501
169	0x3c756d40	0.0149796605
170	0x3d089de0	0.033353686
171	0xbda8c878	-0.082413614
172	0x3d1154b4	0.03548117
173	0xbbc103b0	-0.005890332
174	0x3d17a418	0.037021726
175	0xbda67a58	-0.08128804
176	0x3d3d37dc	0.04619585
177	0xbdc7f9cc	-0.09764442
178	0x3ddfae42	0.10921909
179	0xbd487146	-0.04893615
180	0xbc6a6dd0	-0.014308408
181	0xbd308298	-0.043093294
182	0x3d4bb9c4	0.049737707
183	0xbd0f6684	-0.035009876
184	0x3c084868	0.008318044
185	0x3ca95418	0.020669982
186	0xbdc50a4a	-0.09621103
187	0x3d2bf148	0.04197815
188	0xbde26883	-0.1105509
189	0xbdafa956	-0.0857722
190	0xbcdf33dc	-0.027246408
191	0xbb171620	-0.002305396
192	0xbbfd7600	-0.007735014
193	0xbdb0415e	-0.08606218
194	0x3c8fff30	0.017577738
195	0xbc943318	-0.01809077
196	0x3dd27642	0.10276462
197	0xbd0f964e	-0.03505545
198	0x3dec4e9e	0.115384325
199	0x3b1addc0	0.0023630708
200	0x3d99f91a	0.075182155
201	0x3d9ea3b0	0.07746065
202	0xbcdb5a38	-0.026776418
203	0xbc5e43c8	-0.013565965
204	0xbd81bf9c	-0.06335375
205	0xbd63ac9b	-0.05558453
206	0x3d3bf1d4	0.045884922
207	0xbddfdee6	-0.109311864
208	0x3b50a5a0	0.0031837001
209	0x3d944566	0.07239799
210	0x3c8e6fe8	0.017387345
211	0x3c484420	0.0122232735
212	0x3dca5aea	0.09880622
213	0xbb98bf20	-0.0046614558
214	0x3d2efe30	0.04272288
215	0xbda6c9fa	-0.08143993
216	0x3dc188a6	0.09449892
217	0x3bb58290	0.005539246
218	0xbba8dab0	-0.0051530227
219	0xbd80b546	-0.06284575
220	0xbdbeb5bc	-0.09312007
221	0xbd946164	-0.07245138
222	0x3cac6c30	0.021047682
223	0xbd6a9e92	-0.05728013
224	0x3dcdbe64	0.1004608
225	0xbdc36eea	-0.095426396
226	0x3dc2389a	0.09483452
227	0xbc959590	-0.018259794
228	0xbc92e1d8	-0.017929956
229	0x3dd3a6e8	0.10334569
230	0xbb8dc3c0	-0.0043263137
231	0x3d93d07c	0.072174996
232	0x3d43e7b8	0.047828406
233	0x3dc28578	0.094981134
234	0xbd3ec6da	-0.04657636
235	0xbd7b0517	-0.06128415
236	0x3d456910	0.0481959
237	0x3d725528	0.059163243
238	0x3d44ca68	0.048044592
239	0xbda267cf	-0.07929956
240	0x3dd4f9ca	0.10399206
241	0x3daaa2c8	0.08331829
242	0x3b884240	0.0041582882
243	0xbd22bdb2	-0.03973169
244	0xbc315778	-0.010824077
245	0x3dd62130	0.10455549
246	0xbd51378a	-0.051078357
247	0xbdebfb3b	-0.11522528
248	0xbdc1a1dd	-0.09454701
249	0x3d0ce630	0.03439921
250	0x3ce2d930	0.027691454
251	0xbd0fc4b2	-0.035099693
252	0xbdb3ec85	-0.08785347
253	0x3d68e894	0.05686243
254	0xbdb66ac0	-0.0890708
255	0x3daf75ba	0.085673764

bias f4 [8]
0	0x3cb64688	0.022250429
1	0xbbf5b420	-0.007498279
2	0x3bdfd270	0.006830506
3	0xbd7b0660	-0.061285377
4	0x3d08d908	0.033410102
5	0x3dc88f5a	0.09792967
6	0xbd67a3f6	-0.05655285
7	0x3da93290	0.08261597

weight f4 [4, 8, 3, 3]
0	0xbd2b4faa	-0.04182402
1	0xbde927ee	-0.11384569
2	0xbdf0846f	-0.1174401
3	0x3dc00937	0.093767576
4	0x3d580346	0.052737497
5	0xbda2a026	-0.07940702
6	0x3d898771	0.067152865
7	0x3d105f7e	0.03524732
8	0xbcc14b40	-0.023595452
9	0x3db7631d	0.08954451
10	0x3d66c7aa	0.05634276
11	0xbdbe920a	-0.093051985
12	0xbcfb6ee0	-0.030692518
13	0xbca2bfac	-0.019866787
14	0x3d725b9a	0.05916939
15	0x3d87001d	0.065918185
16	0xbdbd1bfc	-0.09233853
17	0x3d01846a	0.03162042
18	0x3d96cdc5	0.07363466
19	0x3d893f5f	0.0670154
20	0xbdb5de43	-0.08880284
21	0x3d7f65ba	0.062352873
22	0xbd5531f2	-0.052049585
23	0x3d02e506	0.031956695
24	0x3d0737d2	0.03301222
25	0xba5a4880	-0.00083268434
26	0x3d703cd6	0.058651768
27	0xbd468500	-0.048466682
28	0x3d1c5d72	0.038175054
29	0xbc9338b4	-0.017971374
30	0xbd6d93f7	-0.05800244
31	0xbdee421e	-0.116337046
32	0xbd5aea2a	-0.053445973
33	0xbc03a960	-0.008035988
34	0x3db1f52b	0.0868934
35	0x3d4c296e	0.049844198
36	0x3db5f8a5	0.08885316
37	0x3cf3af64	0.029746719
38	0x3dd33671	0.10313118
39	0xbd382c86	-0.044964336
40	0xbde1522f	-0.110020034
41	0xbd988fd8	-0.07449311
42	0x3cae920c	0.021309875
43	0x3d84a0ab	0.064759575
44	0x3c244578	0.010026328
45	0xbdddb19b	-0.10824891
46	0xbd01af48	-0.0316613
47	0xbcd0fb40	-0.02551043
48	0xbcbb1a08	-0.022839561
49	0xbd34fa94	-0.044184282
50	0xbdafa75e	-0.08576845
51	0xbde6a2c1	-0.112615116
52	0xbcf86258	-0.030320331
53	0xbda21b71	-0.0791539
54	0xbcf5f370	-0.030023307
55	0xbce58c8c	-0.02802112
56	0x3ce2ff74	0.0277097
57	0xbda65448	-0.08121544
58	0x3d164922	0.03669084
59	0xbba6be20	-0.0050885826
60	0xbdbf1d98	-0.093318164
61	0xbd8d7590	-0.06907189
62	0xbdce401b	-0.10070821
63	0xbd091e26	-0.033476017
64	0xbda13485	-0.078713454
65	0xbdcfe41e	-0.10150932
66	0xbdaa28ac	-0.08308539
67	0xbc8977cc	-0.016780756
68	0xbd8fb0da	-0.07016154
69	0xbdda96a0	-0.10673261
70	0xbb7b8400	-0.0038378239
71	0xbd7dcb1b	-0.061961275
72	0x3d5d7e0a	0.05407528
73	0xbd3ea722	-0.04654611
74	0x3d66296e	0.056191854
75	0xbcc82f64	-0.02443666
76	0x3c4660a8	0.012108006
77	0xbdc0b056	-0.094086334
78	0x3d79b672	0.06096501
79	0xbcac048c	-0.020998262
80	0x3de6c283	0.11267569
81	0xbd5ee086	-0.05441334
82	0xbdee9b46	-0.1165071
83	0x3d73786e	0.059441023
84	0x3dd1fbeb	0.10253128
85	0xbdcc2ad2	-0.09969105
86	0xbd9c0a86	-0.07619195
87	0x3d1054ca	0.03523711
88	0x3cb026b4	0.02150283
89	0xbde4af4f	-0.1116625
90	0xbdaca906	-0.08430676
91	0x3dd018a9	0.101609536
92	0x3d8e3c63	0.069451116
93	0xba1e1280	-0.00060299784
94	0xbdc8914e	-0.0979334
95	0xbd064068	-0.032776266
96	0x3d662bea	0.056194223
97	0xbd0940ee	-0.033509187
98	0x3d47139a	0.048602678
99	0x3d6120b6	0.054962836
100	0xbd872859	-0.065994926
101	0xbdc683c2	-0.096930996
102	0xbdc4f055	-0.09616152
103	0x3dad6063	0.0846565
104	0x3ca364ac	0.019945465
105	0x3de31117	0.11087244
106	0x3bb4ae30	0.005513929
107	0xbd417cdc	-0.047238216
108	0x3de605f7	0.112316065
109	0xbd0ecb94	-0.034862116
110	0xbda76152	-0.08172859
111	0x3cad34c4	0.021143325
112	0xbd44c7de	-0.04804217
113	0x3dda2227	0.10651045
114	0xbcad75c0	-0.021174312
115	0x3d3a46ba	0.045477606
116	0x3d920533	0.07129898
117	0x3d5dd64a	0.05415944
118	0xbd038eac	-0.032118484
119	0x3d962bef	0.073325984
120	0x3c9240ec	0.017853223
121	0xbbfec4d0	-0.0077749267
122	0xbda1ef83	-0.07907011
123	0xbcc41b68	-0.02393885
124	0x3d15f4d2	0.036610432
125	0x3d8b56c7	0.06803661
126	0x3dd3a61f	0.103344195
127	0xbd9dcbd1	-0.077048905
128	0xbdf0069d	-0.117200114
129	0x3bf07a70	0.0073388144
130	0x3d9124a3	0.07087066
131	0x3d4cba22	0.049982198
132	0xbdc08437	-0.09400218
133	0x3d37b55e	0.0448507
134	0xbcdde3c0	-0.027086139
135	0x3cf2dafc	0.029645436
136	0xbd8ea777	-0.06965535
137	0xbd7523fa	-0.059848763
138	0x3c526168	0.012840606
139	0xbcc44aa8	-0.02396138
140	0xbc7fbfd8	-0.015609704
141	0xbb5ea1c0	-0.0033970922
142	0xbd9ed4e6	-0.07755451
143	0xbdd10116	-0.10205285
144	0xbd31fbfc	-0.0434532
145	0xbd00a276	-0.031404935
146	0x3bcccdf0	0.0062501356
147	0x3c0ca858	0.008585058
148	0x3dcd8485	0.10035042
149	0x3cb56b6c	0.02214595
150	0x3caf10bc	0.021370284
151	0x3db95a55	0.090504326
152	0xbdc2cc3e	-0.09511612
153	0xbce5ba48	-0.028042927
154	0xbd288d0a	-0.04115013
155	0x3d6796b2	0.0565402
156	0xbd81330e	-0.06308566
157	0x3dc89467	0.097939305
158	0xbdd077fe	-0.10179137
159	0xbda4bf84	-0.08044341
160	0xbdea1a47	-0.11430793
161	0xbd9c4966	-0.07631187
162	0xbcbbbcc0	-0.022917151
163	0xbd00615e	-0.031342857
164	0x3d9bc91d	0.07606719
165	0x3cde0fbc	0.027107112
166	0xbd5b9c9e	-0.05361616
167	0xbca9c678	-0.02072452
168	0x3dc0023b	0.093754254
169	0xbda45146	-0.08023314
170	0xbdea4a91	-0.11440004
171	0xbca70a70	-0.02039072
172	0x3d2bf256	0.041979156
173	0x3d98a40b	0.07453164
174	0xbdab965c	-0.08378288
175	0xbce21d00	-0.027601719
176	0x3dd3afaf	0.10336243
177	0x3c2beba8	0.010493197
178	0xbd3120ba	-0.0432441
179	0x3db8b581	0.09018994
180	0xbc9e0d4c	-0.01929345
181	0xbde1976a	-0.11015208
182	0x3b1279e0	0.0022350475
183	0x3dbe6dc5	0.092982806
184	0x3dbd58e5	0.09245471
185	0xbc76da40	-0.015066683
186	0xbdc17119	-0.094454
187	0x3c6c9558	0.014439903
188	0xbc806fbc	-0.01567828
189	0x3dd70ef5	0.105009
190	0xbd95fdc1	-0.0732379
191	0xbcb1ea50	-0.021718174
192	0xbc94d078	-0.018165812
193	0xbd656bec	-0.056011125
194	0x3cfbc01c	0.030731253
195	0x3c68c478	0.014206998
196	0xbd5ca90e	-0.05387216
197	0x3d1c5926	0.038170956
198	0x3ced31b4	0.028954364
199	0xbd2497c2	-0.04018379
200	0x3d8f2975	0.06990329
201	0x3cb0acec	0.02156683
202	0x3d4454e2	0.047932513
203	0x3d88a743	0.06672528
204	0xbd1820fc	-0.03714083
205	0xbd126df4	-0.03574939
206	0xbd2338c0	-0.039849043
207	0x3d070dc2	0.032972105
208	0xbdcffd5e	-0.10155748
209	0x3db21ed1	0.08697284
210	0x3d36dd66	0.044644736
211	0x3dc93f93	0.09826579
212	0x3c5564c8	0.013024516
213	0xbda9da14	-0.08293548
214	0xbd0b58c2	-0.034020193
215	0xbcdd0a30	-0.026982397
216	0xbd518e80	-0.05116129
217	0x3d48ea72	0.04905171
218	0x3d315776	0.0432963
219	0xbdb19f85	-0.08673004
220	0xbb859f80	-0.004077852
221	0xbd2e49f8	-0.04255101
222	0xbdeb930e	-0.11502658
223	0xbc4ba580	-0.012429595
224	0x3de9cad5	0.1141564
225	0xbd457714	-0.048209265
226	0xbde6ec71	-0.11275566
227	0x3ce74824	0.028232642
228	0xbcb9a854	-0.022663273
229	0xbd1378d4	-0.036003903
230	0xbdc5af46	-0.096525714
231	0xbdad8e6a	-0.08474429
232	0xbbbf0c00	-0.005830288
233	0xbc142a38	-0.009043269
234	0xbd9d4c46	-0.07680564
235	0x3de600b3	0.11230602
236	0x3df113b5	0.11771337
237	0x3de88f5d	0.113554694
238	0x3d7f29f2	0.06229586
239	0xbb51e0c0	-0.003202483
240	0xbbbb4940	-0.005715519
241	0x3dcd87f9	0.100357
242	0x3d6b1d42	0.05740095
243	0xbdb4e8d0	-0.08833468
244	0xbd65314e	-0.055955224
245	0x3d4840a6	0.04888978
246	0x3daa7331	0.08322752
247	0x3daee753	0.08540215
248	0xbd2c0012	-0.041992255
249	0xbdbacdc8	-0.09121281
250	0xbcc9aa8c	-0.024617456
251	0xbdd1942b	-0.10233339
252	0xbdb6853a	-0.0891213
253	0x3d3170ae	0.04332035
254	0x3dedffff	0.11621093
255	0xbd70d51d	-0.05879699

bias f4 [4]
0	0xbdd419b5	-0.10356466
1	0xbd069fb4	-0.03286715
2	0xbd0eaa50	-0.03483039
3	0x3c040df8	0.008059971

weight f4 [128, 324]
0	0xbc9e9b68	-0.019361213
1	0xbd1697c0	-0.036765814
2	0x3d0c6f2b	0.034285706
3	0x3b11d1b0	0.0022250228
4	0xbcfe4827	-0.031040264
5	0xbd180739	-0.037116263
6	0xbd0de2ce	-0.034640126
7	0x3ce6546e	0.028116431
8	0xbd17ae76	-0.037031613
9	0x3d182b71	0.037150804
10	0xbd1fdfbe	-0.039031737
11	0x3cabb03e	0.020958062
12	0x3cbeccc2	0.023290996
13	0xbd2e6ea9	-0.042586002
14	0xbd31da8e	-0.04342132
15	0xbd2ac59e	-0.04169237
16	0x3c7e9ad4	0.015539844
17	0x3d122a41	0.035684828
18	0x3d30d3ed	0.04317086
19	0x3ca242a2	0.019807164
20	0x3c3bb85c	0.011457529
21	0x3cf4142e	0.029794779
22	0x3b430be0	0.0029761717
23	0x3ce48d7e	0.0278995
24	0x3c8cd542	0.017191533
25	0x3d3c5ec9	0.04598883
26	0x3c0ddf84	0.008659247
27	0xbd5fa4b4	-0.054600433
28	0x3c776bb4	0.015101362
29	0x3d61c531	0.055119697
30	0x3d2970dd	0.0413674
31	0xbce9c9bd	-0.02853858
32	0x3d0e5b0b	0.034754794
33	0xbd5b762d	-0.053579498
34	0xbd4e7dc7	-0.05041292
35	0xb8675000	-5.5149198e-05
36	0xbd245d4c	-0.040128037
37	0x3d28e19d	0.041230787
38	0x3d1bfe59	0.03808436
39	0xbbf8fba0	-0.0075983554
40	0xbc55dfec	-0.013053875
41	0xbcf61ef2	-0.030044053
42	0xbd02adc7	-0.03190401
43	0x3d2eeaa1	0.04270423
44	0xbd003947	-0.031304624
45	0xbc3190f8	-0.010837786
46	0xbca449a0	-0.020054638
47	0x3d4f1841	0.05056024
48	0x3c482b84	0.012217406
49	0xb8dd0a00	-0.00010539964
50	0x3d1834a7	0.03715959
51	0xbc276b40	-0.0102184415
52	0x3cdb7ffe	0.02679443
53	0xbd0eaa82	-0.034830578
54	0xbd47231e	-0.048617475
55	0x3d4626fb	0.04837702
56	0x3c486bc4	0.012232725
57	0xbcfd660e	-0.030932453
58	0xbd4bf939	-0.049798224
59	0xbd182a37	-0.037149634
60	0xbcb73c12	-0.022367511
61	0xbd4fbdc9	-0.050718103
62	0xbd1f5b52	-0.03890545
63	0xbd5d0d82	-0.05396796
64	0x3d3293fb	0.043598156
65	0x3d06068b	0.032721084
66	0x3cf94656	0.030429047
67	0xbcd9080e	-0.026493099
68	0x3d5b70c9	0.053574357
69	0x3cc5cf7a	0.024146784
70	0xbd301e9e	-0.04299795
71	0x3c7e2d5c	0.015513744
72	0xbc410410	-0.011780754
73	0xbca53748	-0.020167962
74	0x3c3955cc	0.0113119595
75	0x3c11a73c	0.008889969
76	0x3c2009bc	0.009767946
77	0xbd289afc	-0.04116343
78	0x3d636ad5	0.055521805
79	0x3d1740df	0.0369271
80	0xbd40e622	-0.04709447
81	0xbcedda39	-0.02903472
82	0xbcb75f72	-0.022384379
83	0x3ceb64fe	0.02873468
84	0xbcefdd0b	-0.029280206
85	0x3ca20d6a	0.019781787
86	0x3c719e94	0.014747281
87	0x3d558c0f	0.052135523
88	0xbd526e97	-0.051374998
89	0x3c994ed2	0.018714342
90	0x3d0e1b11	0.03469378
91	0xbc6d5eb8	-0.014487915
92	0xbd026416	-0.03183373
93	0x3b9c82d8	0.00477634
94	0xbc54ebf8	-0.012995712
95	0xba50ee40	-0.00079700723
96	0x3c906316	0.017625373
97	0xbb866ca8	-0.0041023083
98	0x3cb40f2e	0.021979894
99	0x3d2ba0bb	0.04190133
100	0xba920ce0	-0.0011142753
101	0xbd23fb50	-0.040034592
102	0x3cc05162	0.023476306
103	0x3d3c2bdd	0.04594027
104	0x3bdaf600	0.0066821575
105	0x3d47c88f	0.048775252
106	0xbcfbc30b	-0.030732652
107	0x3d181237	0.037126746
108	0x3d2b49e1	0.041818503
109	0xbd09dc0a	-0.03365711
110	0x3d1e3867	0.03862801
111	0x3cd1aa22	0.025593821
112	0x3d38bc8d	0.04510169
113	0xbd37d5d0	-0.044881642
114	0xbba0f3f0	-0.004911892
115	0x3c857c9e	0.016294774
116	0x3d17dfb3	0.03707857
117	0xbcc0cc56	-0.023534935
118	0xbc284e38	-0.010272555
119	0xbc567088	-0.013088353
120	0x3cdba2ba	0.026810993
121	0xbd31b17c	-0.043382153
122	0x3d421a59	0.04738841
123	0xbc913a12	-0.017727885
124	0x3cb69a12	0.022290263
125	0x3cda21e2	0.026627485
126	0x3a939aa0	0.0011261292
127	0x3c5a6934	0.013330746
128	0x3d1b9c07	0.037990596
129	0xbcdd7844	-0.027034886
130	0xbd0d382a	-0.03447739
131	0x3bcc5fa8	0.006236989
132	0xbcc6cf08	-0.024268642
133	0x3c796e74	0.015224088
134	0x3d05cd95	0.03266676
135	0xbc843b92	-0.016141687
136	0x3c24d204	0.010059837
137	0x3bd7b458	0.006582778
138	0x3d02d071	0.031937066
139	0xbd3bb620	-0.045827985
140	0x3b9abd10	0.004722245
141	0x3ca9fe5e	0.020751175
142	0xbbe34448	-0.00693563
143	0x3d0263e3	0.03183354
144	0x3d382591	0.0449577
145	0xbc72e4ac	-0.014825027
146	0x3d4dc43f	0.050235983
147	0xbcc76ff5	-0.024345377
148	0x3c8e5e0a	0.017378826
149	0x3d1a711f	0.037705537
150	0x3ca1ebe2	0.019765798
151	0xbcdc4e07	-0.026892675
152	0xbd3ee809	-0.046608005
153	0x3cdc542a	0.026895601
154	0xbd1c898c	-0.038217112
155	0xbcfdd375	-0.03098462
156	0xbce62f84	-0.02809883
157	0x3ca99d5e	0.020704921
158	0x3d1ca999	0.03824768
159	0x3d3368a1	0.043800954
160	0xbbc35028	-0.005960483
161	0xbbdb3d70	-0.0066906735
162	0xbbfcc2c8	-0.0077136494
163	0xbcea2127	-0.028580261
164	0xbd064127	-0.032776978
165	0x3d579d77	0.052640405
166	0x3c802b4a	0.015645642
167	0xbc56db5c	-0.013113823
168	0x3be256a8	0.006907303
169	0x3b0058b0	0.0019584112
170	0x3bccee60	0.0062540025
171	0xbc835308	-0.016030803
172	0x3ca88a86	0.020573866
173	0xbd15a22e	-0.03653162
174	0xbcb9678a	-0.02263238
175	0xbd3ecafc	-0.0465803
176	0xbd27ca7c	-0.04096459
177	0xbc3c4b50	-0.011492565
178	0x3acb8880	0.0015528351
179	0xbd2769d4	-0.04087241
180	0xbb6cc100	-0.003612578
181	0x3cc34886	0.023838293
182	0xbd399b69	-0.045314226
183	0xbcfa080e	-0.030521419
184	0xbbe32028	-0.0069313236
185	0xbc4437f0	-0.011976227
186	0xbcb9e9e0	-0.022694528
187	0xbb000950	-0.00195368
188	0xbb8b54a0	-0.0042520314
189	0x3c5bb05c	0.013408747
190	0x3d5d6ea9	0.054060612
191	0xbccce887	-0.025013221
192	0xbc5b5ef0	-0.013389334
193	0xbca6b76a	-0.02035113
194	0x3bcb0de0	0.0061967224
195	0x3d2086c1	0.03919101
196	0xbcdfe500	-0.027330875
197	0x3d4b4deb	0.049634855
198	0xbc4b3d08	-0.012404688
199	0x3ce5237e	0.027971026
200	0xbd107572	-0.035268255
201	0x3b93ef48	0.0045146085
202	0x3d3abcf1	0.045590345
203	0xbb9fb1c8	-0.004873488
204	0x3d61c0f9	0.055115674
205	0xbd27a647	-0.04093006
206	0xbcfa3dab	-0.030546984
207	0x3d5529cf	0.052041825
208	0xbc3f61b0	-0.011681005
209	0x3b53df70	0.0032329224
210	0x3cbb6b22	0.022878233
211	0x3c94fc2e	0.018186655
212	0xbcfe47bd	-0.031040067
213	0xbd1cd55a	-0.038289405
214	0x3d4659d9	0.04842553
215	0x3d5e9b71	0.05434746
216	0x3c4af59c	0.012387659
217	0x3d22da71	0.039759103
218	0x3d1f4c1b	0.03889094
219	0x3d1962bb	0.037447672
220	0xbc16c81c	-0.009202983
221	0xbd3e7d16	-0.04650601
222	0x3c3e59ec	0.011618119
223	0xbd3c7c20	-0.046016812
224	0xbd2f338b	-0.042773765
225	0xbd2a0e1c	-0.041517362
226	0xbd442280	-0.047884464
227	0xbc818e4a	-0.015814919
228	0xbd4add99	-0.04952774
229	0x3d5c8133	0.05383415
230	0x3b7a90c0	0.003823325
231	0x3d33afd5	0.04386886
232	0x3b4b9f50	0.00310703
233	0xbd3a2f77	-0.045455422
234	0xbc2455d0	-0.010030225
235	0xbd30e92c	-0.04319112
236	0x3c6733e4	0.014111493
237	0xbd440f7b	-0.047866326
238	0xbd1587a6	-0.036506318
239	0x3c6bc6d4	0.014390666
240	0x3d2f4019	0.042785738
241	0xbd45eb80	-0.048320293
242	0x3d50f94f	0.05101901
243	0xbc3c5ac8	-0.011496253
244	0xbbedbf80	-0.0072554946
245	0xbcdfc3b5	-0.027315
246	0x3b1687b0	0.002296906
247	0xbd5f06f9	-0.05445001
248	0xbbc6d6a0	-0.0060680658
249	0x3cd9b9c6	0.026577841
250	0xbd27722c	-0.040880367
251	0xbba06a48	-0.004895482
252	0x3b31f350	0.0027153082
253	0x3cb0e7da	0.02159493
254	0x3b3599e0	0.0027710125
255	0xb8a86a00	-8.030608e-05

bias f4 [128]
0	0x3b471150	0.003037531
1	0x3d149aad	0.036280323
2	0x3bcab810	0.0061864927
3	0xbcec8a4b	-0.028874537
4	0x3d03fcb7	0.03222343
5	0x3d1776df	0.0369786
6	0xbd1755ac	-0.036946937
7	0x3c971ee2	0.018447343
8	0x3c9a77f6	0.01885603
9	0xbd40771c	-0.04698859
10	0xbd11c4c7	-0.035588052
11	0x3d57791b	0.05260573
12	0x3d55f295	0.052233297
13	0xbc99c578	-0.018770918
14	0xbcb0402e	-0.021514978
15	0x3c76dc04	0.015067104
16	0xbc3b2464	-0.01142225
17	0xbca1e3b2	-0.019761894
18	0x3d3ea321	0.04654229
19	0xbc4be354	-0.012444336
20	0xbccdc2ce	-0.025117304
21	0xbd1966ba	-0.037451483
22	0x3d242b9d	0.040080655
23	0xbcbea8d8	-0.02327387
24	0xbd0d2bd7	-0.034465637
25	0xbd30f749	-0.04320458
26	0xbbdd7f00	-0.0067595243
27	0xbc8b4dea	-0.017004926
28	0x3a3fe700	0.00073204935
29	0x3cbbfbc2	0.022947196
30	0xbc81d798	-0.015849873
31	0x3cd151ea	0.025551755
32	0xbc79b794	-0.015241522
33	0x3d54bb83	0.051936638
34	0xbba43b80	-0.0050119758
35	0xbd044a8a	-0.03229765
36	0xbd0b3422	-0.033985265
37	0xbd0350be	-0.032059424
38	0xbd1a96d4	-0.037741497
39	0xbc640610	-0.013917461
40	0xbcec18eb	-0.028820476
41	0x3d188305	0.037234325
42	0xbcc827e0	-0.024433076
43	0x3cc133ee	0.023584332
44	0x3a390000	0.000705719
45	0x3d4596a3	0.04823936
46	0x3b2119e0	0.0024582073
47	0x3d62acf1	0.05534071
48	0x3d5bcf29	0.05366436
49	0xbd272352	-0.04080517
50	0xbd2f7f2b	-0.042845886
51	0x3cc63822	0.024196688
52	0xbc839bae	-0.016065445
53	0x3d58eae1	0.052958373
54	0xbbc03ea0	-0.0058668405
55	0x3cdc5622	0.02689654
56	0xbca4acdc	-0.020101957
57	0xbd232f44	-0.039839998
58	0xbc9af524	-0.01891572
59	0x3d02ddd1	0.03194982
60	0x3ceb3712	0.028712783
61	0xbd0eaf9c	-0.034835443
62	0x3cc39b36	0.023877721
63	0x3c646ca4	0.013941918
64	0xbc19902c	-0.009372752
65	0xbc9184ee	-0.017763581
66	0x3c8ebeae	0.017424908
67	0x3cabd766	0.020976733
68	0x3ae4ffc0	0.0017471239
69	0x3d382d71	0.04496521
70	0x3cbf4d9a	0.023352433
71	0x3d115ab7	0.035486903
72	0xbc773d30	-0.015090272
73	0xbc82e9ca	-0.01598062
74	0xbd0583ce	-0.032596402
75	0xbb46d270	-0.0030337833
76	0x3b5737b0	0.0032839589
77	0xbd212514	-0.039342
78	0xbcbf71ea	-0.023369748
79	0xbd440550	-0.04785663
80	0xbd37e71b	-0.044898134
81	0x3a81de80	0.0009908229
82	0x3b9e3fe0	0.004829392
83	0x3c828f7e	0.015937563
84	0xbb81f910	-0.003966458
85	0xbccb5839	-0.024822341
86	0x3c85bace	0.016324427
87	0x3ce6655e	0.028124508
88	0x3d239863	0.03994025
89	0x3d3dd26b	0.04634325
90	0xbd06d8d6	-0.032921635
91	0x3d48ed13	0.049054217
92	0xbd0c67f4	-0.034278825
93	0xbcecfca4	-0.028929062
94	0x3bb881b8	0.005630698
95	0xbcfa8144	-0.030579217
96	0xbd23a306	-0.039950393
97	0x3d32e051	0.043670956
98	0x3cc21d92	0.02369574
99	0xbc9ed7a8	-0.019389942
100	0xbb933458	-0.004492324
101	0x3b106eb0	0.002203863
102	0x3caeda4e	0.02134433
103	0xbceb67d5	-0.028736034
104	0xbcdfab52	-0.027303372
105	0x3c817a4a	0.015805382
106	0xbcbe31c8	-0.023217097
107	0xbcec6f92	-0.028861795
108	0x3cca60c2	0.02470434
109	0x3d218fdf	0.039443847
110	0xbd51c119	-0.051209543
111	0x3c5f0864	0.01361284
112	0xbd1024d9	-0.03519139
113	0x3c8e5d42	0.017378453
114	0xbc355f88	-0.01107014
115	0xb90e5c00	-0.00013576448
116	0x3cbebf06	0.023284446
117	0xbd0372f4	-0.03209205
118	0xbce46f8b	-0.02788522
119	0x3d386d13	0.045025896
120	0xbd0bb920	-0.034112096
121	0xbc53ad78	-0.012919776
122	0x3d57561b	0.05257235
123	0x3d2f85fb	0.042852383
124	0x3b849d10	0.0040470436
125	0x3d5b94bf	0.053608652
126	0xbd132cdc	-0.035931453
127	0xbd5d8b57	-0.054087963

weight f4 [1, 128]
0	0x3c4adbf8	0.012381546
1	0x3d57c62a	0.05267922
2	0xbd4a9443	-0.0494578
3	0x3c95d2e8	0.018289044
4	0xbadebd80	-0.0016993731
5	0xbd855bda	-0.0651166
6	0x3d20cf1a	0.039260007
7	0x3b859d80	0.0040776134
8	0xbd8de230	-0.069279075
9	0xbcab46d0	-0.02090779
10	0xbdb1cd7c	-0.08681771
11	0x3d33d70a	0.04390625
12	0x3d9b0cd1	0.07570804
13	0x3dad7dcb	0.08471259
14	0x3d311406	0.043231986
15	0x3c0f2dd8	0.008738957
16	0x3d0061e8	0.03134337
17	0x3d33d5e6	0.04390516
18	0xbd8f69b5	-0.07002584
19	0x3cfbfe24	0.030760832
20	0x3da6c0cd	0.081422426
21	0xbda8c278	-0.08240217
22	0xbd91648c	-0.07099256
23	0x3d48fc86	0.04906895
24	0x3d14464c	0.036199853
25	0xbd7cc338	-0.061709613
26	0x3d99deed	0.07513223
27	0x3a7d7900	0.00096692145
28	0x3d8bb931	0.06822432
29	0x3daf55e1	0.08561302
30	0x3d1b43fe	0.03790664
31	0xbd9540c0	-0.07287741
32	0x3bcbc450	0.0062184706
33	0xbcfe5cc2	-0.03105009
34	0xbc78dd08	-0.015189417
35	0xbb938d50	-0.0045029297
36	0xbd46ccd9	-0.0485352
37	0xbbbffdd0	-0.005859114
38	0xbd8beba9	-0.06832058
39	0xbd255ca9	-0.04037157
40	0xbb5d4920	-0.003376551
41	0xbcd84a80	-0.026402712
42	0x3b8e1470	0.0043359324
43	0xbd31d501	-0.043416027
44	0xbdabd63f	-0.083904736
45	0xbcfc10c6	-0.030769717
46	0xbcb03e0c	-0.021513961
47	0xbd9939e2	-0.074817434
48	0x3d5c5c3e	0.053798907
49	0x3da8fe23	0.08251598
50	0x3ce9e960	0.028553665
51	0xbd6d6749	-0.05795983
52	0xbd49e02b	-0.04928605
53	0x3cd699b0	0.02619633
54	0x3d0af150	0.03392154
55	0xbd9fcd20	-0.07802796
56	0xbdabe68f	-0.08393585
57	0xbd0525b8	-0.032506675
58	0xbce278a8	-0.027645424
59	0x3c1b3d00	0.009474993
60	0xbd9b5bce	-0.0758587
61	0xbcb1af5c	-0.021690063
62	0xbd9f9288	-0.077916205
63	0x3d49af6e	0.04923957
64	0x3c0211a0	0.007938772
65	0x3d6c8822	0.057747014
66	0xbd52f78b	-0.051505607
67	0x3b2751c0	0.0025530905
68	0x3d3706ce	0.044684224
69	0x3b7607a0	0.0037541166
70	0xbd46b40c	-0.04851155
71	0xbd7bbbe9	-0.061458502
72	0x3d8ba6bd	0.06818912
73	0xbdb01109	-0.08596999
74	0xbd16a987	-0.036782768
75	0x3cf8dc28	0.030378416
76	0xbc8277cc	-0.015926264
77	0x3d9956bd	0.07487247
78	0x3d28b67a	0.04118965
79	0xbd710a9a	-0.058848
80	0xbcc969b8	-0.024586543
81	0xbd0e5e1b	-0.034757715
82	0xbdb4edbc	-0.08834407
83	0x3d900e09	0.07033927
84	0xbd63f61b	-0.055654626
85	0x3d953d49	0.0728708
86	0xbd8c46f0	-0.06849468
87	0xbd7c6fec	-0.061630175
88	0x3d8f2bd3	0.06990781
89	0x3c3273f8	0.010891907
90	0xbd41f4f9	-0.047352765
91	0xbcf7959a	-0.030222703
92	0x3c225b40	0.009909451
93	0xbdb2d5c0	-0.08732176
94	0x3c7e96a8	0.015538849
95	0xbbd6b150	-0.006551899
96	0x3c57ec40	0.013178885
97	0x3d1555e4	0.036458865
98	0x3c164190	0.009170905
99	0xbda98597	-0.08277433
100	0xbd866128	-0.065615
101	0x3d1697aa	0.036765732
102	0xbd7e0018	-0.06201181
103	0x3d9e6151	0.077334054
104	0xbd2d83df	-0.04236209
105	0xba992680	-0.0011684448
106	0x3d8fda1f	0.07024025
107	0x3d9f73c3	0.07785752
108	0xbda12068	-0.07867509
109	0x3d5cd602	0.05391503
110	0x3c105858	0.008810125
111	0x3d885b2f	0.06658017
112	0xbcd2df88	-0.025741354
113	0xbd1a6cd1	-0.03770143
114	0xbda3452d	-0.079721786
115	0x3db41031	0.08792151
116	0xbcad65e4	-0.02116675
117	0xbd4ca0c4	-0.049958006
118	0xbd16540e	-0.036701255
119	0xbc409b88	-0.011755832
120	0x3d0e1cda	0.034695484
121	0xbca7ebf0	-0.020498246
122	0xbd81eb72	-0.06343736
123	0xbdad86f9	-0.084730096
124	0xbd8756d6	-0.066083595
125	0xbcffee1a	-0.031241465
126	0x3d89258b	0.06696614
127	0x3d83aafb	0.06429096
